Model/rating_weights/model0.pt (torch, 14784 bytes, 9 tensors)

linear_layer.weight f4 [35, 40]
0	0xbe088e04	-0.13335425
1	0x3d495284	0.04915096
2	0xba56e573	-0.0008197643
3	0x3ee8ce0a	0.45469695
4	0x3e666d70	0.22502685
5	0x3d15239c	0.036410913
6	0x3e6b922c	0.23004979
7	0x3ec89b39	0.39180925
8	0xbe9d414f	-0.3071389
9	0x3da39421	0.07987238
10	0x3d0c9fc5	0.034332056
11	0x39965cc1	0.00028679337
12	0x3dee9c0e	0.11650859
13	0xbe51a9ca	-0.20474926
14	0x3e05bdca	0.1306068
15	0x3d6ec99f	0.05829775
16	0xbd849e40	-0.06475496
17	0x3e41f711	0.18941905
18	0x3d6b61f4	0.057466462
19	0x3d8bc964	0.068255216
20	0xbdd9c8b2	-0.10633983
21	0x3deeea8a	0.116658285
22	0xbe5e7aa0	-0.21726465
23	0xbd5d621c	-0.054048643
24	0x3e6825c2	0.22670653
25	0x3ed12101	0.40845492
26	0x3eaa3cbf	0.3324947
27	0x3dd0737b	0.10178276
28	0x3eae3a11	0.34028676
29	0x3e26e86e	0.16299602
30	0x3e410df4	0.18852979
31	0x3e4a565a	0.19759503
32	0x3ea0f4bd	0.3143672
33	0x3e34fd28	0.17674696
34	0xbde953f2	-0.113929644
35	0x3f017233	0.5056488
36	0x3edcaf9b	0.43102726
37	0xbdadcab1	-0.08485926
38	0x3e5f477b	0.21804611
39	0x3e995566	0.29947966
40	0x3ed42433	0.41433868
41	0xbc01fb15	-0.007933398
42	0xbf502a85	-0.8131488
43	0xbf4707f7	-0.7774653
44	0x3dc7cd50	0.09755957
45	0x3ae8c1af	0.0017757918
46	0x3a9822fc	0.0011607106
47	0xbe9e813c	-0.30957973
48	0x3c66b1d5	0.014080484
49	0xbb009f8f	-0.0019626354
50	0x3b480740	0.00305219
51	0x3bde86b5	0.0067909607
52	0x3baf0955	0.0053416886
53	0xbc432ba5	-0.011912261
54	0xbc05996d	-0.008154255
55	0x3c08c9fc	0.008348938
56	0x3c8c03d7	0.017091675
57	0x3b74ee7a	0.0037373588
58	0x398a0e60	0.0002633212
59	0x3b743ca6	0.0037267595
60	0xbc8707b3	-0.016483163
61	0xbcc52ca5	-0.02406914
62	0x3c929218	0.017891929
63	0xbd861f2c	-0.06548914
64	0x3d8ecdfa	0.06972881
65	0xbd839a09	-0.06425864
66	0xbc2377fa	-0.009977335
67	0x3be7ea9d	0.0070775286
68	0x3c2c689a	0.010522986
69	0xbdb59868	-0.0886696
70	0x3c5fee60	0.013667673
71	0xbc385abc	-0.0112521015
72	0xbe1819c4	-0.14853579
73	0xbedac769	-0.42730263
74	0x3c11f9b8	0.008909635
75	0xbd73b80b	-0.05950169
76	0xbd650955	-0.055917103
77	0xbd8cc559	-0.068735786
78	0x3d1238a8	0.035698563
79	0xbc8bd8a4	-0.017071076
80	0xbe821c58	-0.2541225
81	0xbf3bb425	-0.73321754
82	0xbe489945	-0.19589718
83	0xbe93f10a	-0.28894836
84	0xbe3aef14	-0.18255264
85	0xbeb521ab	-0.3537725
86	0xbc514aea	-0.012774209
87	0x3e247d91	0.16063525
88	0x3e18fa50	0.14939237
89	0x3e319af4	0.17344266
90	0x3dd92e21	0.106045015
91	0x3db534fe	0.08847998
92	0xbdcc4fdd	-0.0997617
93	0xba952b15	-0.0011380637
94	0x3e1e3744	0.1545077
95	0xbe3dc513	-0.18532209
96	0x3df7edef	0.12105929
97	0x3e823e72	0.25438267
98	0x3e11baec	0.14231461
99	0xbdb51b09	-0.08843047
100	0xbf2ec588	-0.6827016
101	0xbea880ff	-0.32910916
102	0xbf0c9c48	-0.54925966
103	0xbf4c729d	-0.79862386
104	0xbd2c3488	-0.042042285
105	0xbe18ad36	-0.14909825
106	0xbda4f60e	-0.08054744
107	0x3d1b4183	0.037904274
108	0xbddcd69e	-0.107831225
109	0x3d28c43d	0.041202772
110	0xbdecfcea	-0.11571677
111	0x3ea9baf7	0.33150455
112	0xbe263c42	-0.16233924
113	0x3d9fa7de	0.0779569
114	0xbea8ff29	-0.33007172
115	0x3f21f176	0.63259065
116	0xbe8f3e9c	-0.27977455
117	0x3d2a38ec	0.04155819
118	0xbcd465e2	-0.025927488
119	0xbeb3c072	-0.35107762
120	0x3e28fa35	0.16501696
121	0xbf38349f	-0.71955293
122	0xbf4ecde1	-0.80782896
123	0xbd63bc2e	-0.055599384
124	0xbe75b786	-0.2399579
125	0xbe553f9c	-0.20825046
126	0xbdab4c95	-0.08364216
127	0xbd252d87	-0.04032662
128	0xbd776075	-0.060394723
129	0xbb85c172	-0.0040818984
130	0xbc3b4d8d	-0.011432064
131	0xbbd2e7f8	-0.0064363442
132	0xbbb29dcd	-0.00545094
133	0x3c8d9d87	0.017287029
134	0xbae7bb96	-0.0017679806
135	0xbaa2cdf6	-0.0012421
136	0xbe8706db	-0.26372418
137	0xbf3b96cb	-0.73276967
138	0xbf28b409	-0.6589971
139	0xbe0e113c	-0.13873762
140	0x3ce3ad1a	0.027792502
141	0xbe6b8b1f	-0.23002289
142	0xbe1d8236	-0.15381703
143	0x3d871fea	0.06597884
144	0xbe0c7b9f	-0.13719033
145	0xbe50975f	-0.20370243
146	0xbe8c90b1	-0.2745414
147	0xbe498fb8	-0.1968373
148	0xb7d45554	-2.5312103e-05
149	0xbd1e5b77	-0.038661446
150	0xbd9bbbc0	-0.0760417
151	0xbd046347	-0.03232124
152	0xbdbed1ea	-0.09317382
153	0xbeaaf493	-0.3338972
154	0xbd432742	-0.04764486
155	0xbe67a930	-0.22623134
156	0xbe4dee8e	-0.20110533
157	0xbde1c074	-0.11023036
158	0xbe92091d	-0.28522578
159	0xbe3e07e3	-0.18557696
160	0xbeb51c83	-0.35373315
161	0x3f2487bb	0.6426961
162	0x3e0faaa5	0.1402994
163	0xbeb5164f	-0.35368583
164	0x3e470226	0.19434413
165	0x3b396a39	0.0028292073
166	0x3e2477d8	0.16061342
167	0xbdf35cc6	-0.118829295
168	0x3e3ade26	0.18248805
169	0xbb6e9e84	-0.00364104
170	0xbaed7860	-0.001811754
171	0x3bb3031f	0.0054630185
172	0xba942e95	-0.0011305386
173	0x3c2a3733	0.010389137
174	0xbc8dbc19	-0.017301606
175	0xbc8dd505	-0.01731349
176	0xbe2010d6	-0.15631422
177	0xbe17ffbe	-0.14843652
178	0xbdfff4b8	-0.12497848
179	0xbf13155c	-0.57454467
180	0x3e3a4e80	0.18194008
181	0xbe15485c	-0.14578384
182	0x3dedb27c	0.11606309
183	0x3d324f5f	0.043532725
184	0x3df4b87f	0.11949252
185	0x3db72cfa	0.089441255
186	0xbe6f18e5	-0.2334934
187	0x3e9eeb23	0.3103877
188	0x3e55fcfc	0.20897287
189	0x3e364fd9	0.17803897
190	0x3ded5080	0.1158762
191	0xbf04a27e	-0.51810443
192	0x3e8c6f75	0.27428785
193	0x3e802072	0.25024754
194	0x3e817294	0.2528273
195	0x3d993e9b	0.07482644
196	0x3d7c3d68	0.061582
197	0x3e66019a	0.22461548
198	0x3e8635be	0.26212877
199	0x3bbd13f5	0.0057702013
200	0x3da386e8	0.07984716
201	0xbf6e5d0a	-0.93110716
202	0xbd9834ed	-0.0743197
203	0x3ca03516	0.019556563
204	0x3d923f17	0.0714094
205	0x3e443d34	0.19163972
206	0x3d3437ca	0.043998517
207	0xbe33c4f3	-0.17555599
208	0xbc2860c0	-0.010276973
209	0xbd531314	-0.051531866
210	0xbc741121	-0.014896662
211	0xbd20c655	-0.039251644
212	0xbf5e8cd6	-0.8693365
213	0xbf85add5	-1.0443674
214	0xbf5d4fed	-0.8645008
215	0xbf7bbbd1	-0.9833346
216	0xbe525032	-0.20538405
217	0xbcbe3058	-0.023216411
218	0xbe184b46	-0.14872465
219	0xbe11951d	-0.14217038
220	0x3cba9660	0.022776783
221	0xbe51237c	-0.20423692
222	0xbc408128	-0.011749543
223	0xbdd1f3da	-0.10251589
224	0xbb921f3a	-0.004459289
225	0xba883374	-0.0010391311
226	0xbe04132a	-0.12897936
227	0xbe2f1e28	-0.17101347
228	0x3d0410ad	0.032242466
229	0xbc0fbf5a	-0.008773649
230	0xbe5ade92	-0.21373966
231	0xbdb20cc5	-0.08693842
232	0x3dc37e60	0.095455885
233	0xbe199232	-0.14997175
234	0xbb41f5e1	-0.0029596018
235	0x3db140ac	0.08654913
236	0xbe89fe88	-0.26952004
237	0xbd73e5b2	-0.059545226
238	0xbc509cfd	-0.012732741
239	0xbe059f24	-0.13048989
240	0x3e35cb24	0.17753273
241	0x3d30fc34	0.04320927
242	0x3e079c19	0.1324314
243	0x3e15ca9e	0.14628074
244	0xbea0d748	-0.31414247
245	0xbd074b23	-0.03303064
246	0x3d1b15e6	0.03786268
247	0x3eeb0251	0.45900205
248	0xbe96e0a8	-0.29468274
249	0xbaf4a69f	-0.001866538
250	0xbddd79f2	-0.10814275
251	0xbe163f2b	-0.14672534
252	0x3bab1da1	0.005222038
253	0xbd23749a	-0.03990612
254	0xbe4e8fe2	-0.20172074
255	0x3ca0db52	0.01963583

linear_layer.bias f4 [35]
0	0x3cec3bc6	0.028837096
1	0xbecb937a	-0.39760953
2	0xbdef61b4	-0.11688557
3	0x3e1f7846	0.15573224
4	0xbdccfc4e	-0.10009061
5	0x3ddcbc7d	0.10778139
6	0x3db75669	0.08952028
7	0xbe70c068	-0.23510897
8	0x3eedb154	0.46424353
9	0xbedb5b42	-0.42843062
10	0xbd7e645e	-0.062107436
11	0xbf3384d0	-0.7012453
12	0xbd8a73b2	-0.067603484
13	0xbd9634d9	-0.07334299
14	0x3e9631da	0.2933491
15	0xbf08a1f6	-0.5337213
16	0xbea53a13	-0.3227087
17	0xbed04f45	-0.40685478
18	0x3ee9011d	0.45508662
19	0xbd9a8788	-0.07545382
20	0x3e7ca38c	0.24671763
21	0xbdfe6431	-0.12421454
22	0xbed58e3b	-0.41710076
23	0x3e846134	0.2585541
24	0x3e9c7634	0.30558932
25	0xbe676623	-0.22597556
26	0xbc023866	-0.007948017
27	0xbf1075b9	-0.5642963
28	0xbe44274d	-0.19155617
29	0x3da51324	0.080602914
30	0x3dd8f8a7	0.10594302
31	0x3e212e52	0.15740326
32	0xbecb86f3	-0.39751396
33	0xbecb79ea	-0.3974145
34	0x3f24ed37	0.6442446

linear_layer2.weight f4 [25, 35]
0	0x3d72f5b9	0.05931637
1	0x3e8431ae	0.25819153
2	0xbe9d6cd8	-0.30747104
3	0xbfd375d4	-1.6520333
4	0xbee065cb	-0.43827662
5	0xbee53a45	-0.4477102
6	0xbc8cb1c2	-0.017174605
7	0x3c96f315	0.018426457
8	0xbe577983	-0.21042447
9	0x3e28d767	0.1648842
10	0xbd82d00e	-0.063873395
11	0x3e61eca2	0.22062925
12	0xbdb7b3fd	-0.08969877
13	0xbeb7c1b3	-0.35889968
14	0xbd38362b	-0.044973534
15	0x3f088bd3	0.53338355
16	0xbeb2afdc	-0.34899795
17	0xbcd896d6	-0.026439112
18	0xbf1870f9	-0.5954738
19	0xbea19fbc	-0.3156718
20	0xbf7adf8a	-0.97997344
21	0xbdd78826	-0.10524015
22	0x3eebd157	0.4605815
23	0x3d3ee5b3	0.046605777
24	0xbfec63b3	-1.8467926
25	0xbba63efc	-0.0050734263
26	0x3bdb50c0	0.0066929758
27	0x3e8424ff	0.25809476
28	0xbd3c4682	-0.04596568
29	0x3e8bb31f	0.27285096
30	0x3b5e02be	0.0033876146
31	0xbf47c4cd	-0.7803467
32	0x3e55b8d0	0.20871282
33	0xbcbc2640	-0.022967458
34	0xbfeba43f	-1.8409499
35	0xbdcedac4	-0.1010032
36	0x3ca2e01a	0.01988225
37	0xbea7a099	-0.32739714
38	0xc02782f0	-2.6173668
39	0xbf93a680	-1.1535187
40	0x3d16c1f4	0.036806062
41	0x3d73f5fc	0.05956076
42	0x3dfc3037	0.12313884
43	0xbf16ba0f	-0.5887765
44	0xbee4bdf7	-0.44676182
45	0xbf946b04	-1.1595159
46	0x3ad577dc	0.0016286331
47	0x3ceb3032	0.028709505
48	0xbf99ac8d	-1.2005783
49	0x3e3cba1d	0.18430372
50	0xbeb4f7be	-0.35345262
51	0x3c84057d	0.016115898
52	0xbd6ec7f6	-0.058296166
53	0xbe916a83	-0.28401574
54	0x3e8524d4	0.2600466
55	0xbfb9936d	-1.4498116
56	0x3f099c74	0.53754354
57	0xbde9e97a	-0.11421485
58	0xbf0fcd54	-0.5617268
59	0xc020b219	-2.5108702
60	0x3e94def4	0.2907635
61	0xbde47a25	-0.1115611
62	0x3ec78898	0.389714
63	0x3de0927a	0.10965438
64	0x3a98d0d9	0.0011658921
65	0xbdaf5271	-0.08560646
66	0x3ead8a2c	0.3389448
67	0x3ef1976a	0.47185832
68	0x3ef49778	0.4777181
69	0xbf35f487	-0.71076244
70	0x3d901491	0.07035173
71	0x3eb03e5e	0.34422582
72	0x3d5855b9	0.052816126
73	0xbe5f8816	-0.21829256
74	0x3ef03375	0.4691426
75	0xbf2d9278	-0.6780162
76	0xbcfe4f13	-0.031043565
77	0x3f0a100c	0.53930736
78	0x3e5c0d17	0.21489368
79	0x3d9dea2f	0.077106826
80	0x3e969c3f	0.2941608
81	0x3f58df1d	0.84715444
82	0xbe18643f	-0.14881991
83	0x3eafda98	0.3434646
84	0xbe0274ad	-0.12739821
85	0xbe1e1bc6	-0.15440282
86	0xbe473738	-0.19454658
87	0x3f24f108	0.64430285
88	0x3dc02106	0.09381299
89	0xbee138b7	-0.43988582
90	0xbe29acf9	-0.1656989
91	0x3e36f55d	0.17867036
92	0x3e65540e	0.22395346
93	0xbf97aaa9	-1.1848956
94	0xbdcff47e	-0.10154055
95	0x3e0a4906	0.13504419
96	0x3f04b3d2	0.51836884
97	0x3e857894	0.26068556
98	0x3e1fb10d	0.15594883
99	0x3f089aee	0.53361404
100	0x3e342166	0.17590865
101	0xbef72fb6	-0.48278588
102	0x3e9b1eda	0.30296975
103	0x3d6483fd	0.055789936
104	0xbf4614f8	-0.77375746
105	0xbf769ac7	-0.9632992
106	0x3d2de879	0.04245803
107	0x3df695ec	0.12040314
108	0x3f3ac355	0.72954303
109	0x3c7966ac	0.015222233
110	0xbe922fd0	-0.28552103
111	0xbf011448	-0.5042157
112	0x3e6d52fe	0.2317619
113	0xbe9d403c	-0.3071307
114	0x3e659260	0.22419119
115	0xbf0593e8	-0.5217881
116	0x3e2544e0	0.16139555
117	0xbf57c201	-0.842804
118	0x3eee256f	0.46512935
119	0x3d874ac0	0.06606054
120	0x3e5a237b	0.21302597
121	0x3c4e4ff7	0.012592307
122	0x3e3e1e6b	0.18566291
123	0xbf059616	-0.5218214
124	0xbf3e1e66	-0.74265134
125	0x3f3c48ce	0.7354859
126	0x3d6c9c40	0.0577662
127	0x3ce766f3	0.028247332
128	0xbf9713f9	-1.180297
129	0x3f63c431	0.8897124
130	0x3dcabb04	0.09898952
131	0x3deb9175	0.11502353
132	0xbe96dd88	-0.2946589
133	0x3e31eb80	0.17374992
134	0x3e17b35e	0.14814517
135	0x3dc6746c	0.096901745
136	0xbf128515	-0.5723432
137	0xbeb15ded	-0.34641972
138	0x3edd093c	0.43171108
139	0xbf89919e	-1.0747564
140	0xbd80bb44	-0.06285718
141	0x3e243dad	0.16039152
142	0x3e12189c	0.142672
143	0xbf86226b	-1.0479254
144	0xbf6926ae	-0.91074646
145	0xbf1a7175	-0.6032937
146	0x3e2693cf	0.16267322
147	0xbeb8f16c	-0.3612169
148	0xbe0df7b2	-0.1386402
149	0x3db1aa33	0.08675041
150	0xbf747bd1	-0.9550143
151	0x3f03f202	0.5154115
152	0x3d8e1ea7	0.0693944
153	0xbfa95e37	-1.3231877
154	0xbf5948b3	-0.84876555
155	0x3ec42b80	0.38314438
156	0x3e6e0eef	0.23247884
157	0xbf47a179	-0.7798076
158	0xbf6203fe	-0.8828734
159	0xbf159393	-0.58428305
160	0xbfbc0ad9	-1.469081
161	0x3dac3433	0.08408394
162	0x3e27a883	0.16372876
163	0x3df03fb0	0.117308974
164	0xbf475ece	-0.77879035
165	0x3d9ec89d	0.07753108
166	0x3d1c769f	0.038199063
167	0x3e4fb871	0.20285203
168	0xbeb656ac	-0.35613
169	0x3ea06309	0.31325558
170	0x3d918003	0.071044944
171	0xbf3d5892	-0.7396327
172	0x3da596af	0.08085381
173	0xbdd8b916	-0.10582177
174	0xbf8bdc53	-1.0926613
175	0xbe60dae7	-0.21958505
176	0x3d139520	0.03603089
177	0xbf206103	-0.6264803
178	0xc0217582	-2.522797
179	0xbfdc91f6	-1.7232044
180	0x3de65229	0.112461396
181	0xbe6f26bb	-0.23354618
182	0x3daad682	0.08341695
183	0xbe3f2d00	-0.1866951
184	0xbf52fbfd	-0.82415754
185	0x3ee5a542	0.44852644
186	0xbf99ffa1	-1.2031137
187	0x3e806609	0.25077847
188	0xbfeb47c7	-1.838128
189	0x3dc8a987	0.0979796
190	0xbf200a2d	-0.62515527
191	0x3d5ef8e5	0.054436583
192	0x3d25d2af	0.040484127
193	0x3eaa54f9	0.33267954
194	0x3e9b9370	0.30385923
195	0xbfea6cfa	-1.8314507
196	0x3c3c00eb	0.011474828
197	0xbfb13cbc	-1.384666
198	0x3df57f23	0.1198714
199	0xc01ffbb1	-2.499737
200	0x3d8cde10	0.068782926
201	0x3e376252	0.179086
202	0xbe98fe85	-0.29881683
203	0x3e166f3c	0.1469087
204	0x3d6893a5	0.05678143
205	0x3e3f6835	0.18692096
206	0x3e39a538	0.18129432
207	0x3ca8b351	0.020593317
208	0xbe076f86	-0.13226137
209	0xbe0220e3	-0.12707858
210	0x3e1ee359	0.15516414
211	0x3bcec4a3	0.006310062
212	0xbda07414	-0.0783464
213	0xbe563303	-0.20917897
214	0x3deb9366	0.115027234
215	0x3f194d8d	0.5988396
216	0xbe016f66	-0.12640151
217	0xba0a09a0	-0.00052657165
218	0xbb86037c	-0.004089771
219	0xbe584d58	-0.21123254
220	0xbdd73fe6	-0.105102345
221	0x3f3c53ce	0.73565376
222	0x3c91d14a	0.017799992
223	0x3eac94fe	0.33707422
224	0xbd42c2b0	-0.04754895
225	0xbc6b4582	-0.014359834
226	0xbe1f85ab	-0.15578334
227	0xbd6ed0a9	-0.058304463
228	0x3f295b34	0.6615479
229	0x3f6b8983	0.920067
230	0x3ee44bf1	0.4458919
231	0x3ecad7d5	0.39617792
232	0xbef6c1d3	-0.4819475
233	0x3d239b9b	0.03994332
234	0x3d75a57d	0.059972275
235	0xbea81337	-0.3282716
236	0x3c14eda0	0.009089857
237	0xbe8e7f3e	-0.27831453
238	0xbd0695e1	-0.03285778
239	0x3cda0a7d	0.02661633
240	0xbe2c97cf	-0.16854785
241	0x3f06c1c5	0.5263942
242	0x3e158e83	0.14605145
243	0x3e74def4	0.23913175
244	0x40340734	2.8129396
245	0x3e0d16f8	0.13778293
246	0x3e086a1f	0.13321732
247	0xbf1fbec9	-0.6240049
248	0x3f568265	0.83792716
249	0x3ee3e45f	0.4451017
250	0xbebb1c86	-0.365452
251	0xbf8c2867	-1.094983
252	0x3eb5de09	0.35520962
253	0xbf300968	-0.6876435
254	0x3d23d5df	0.039998885
255	0x3ee7aaae	0.45247406

linear_layer2.bias f4 [25]
0	0xbae43e82	-0.0017413648
1	0x3ebae06c	0.36499345
2	0xbdebf2b7	-0.115209036
3	0xbec29070	-0.38000822
4	0x3e6b8f04	0.23003775
5	0x3f7b3f94	0.9814389
6	0x3e973d42	0.29538924
7	0x3e46f8cc	0.19430846
8	0xbf1e4f72	-0.61839974
9	0xbdaf82c2	-0.08569862
10	0x3f090053	0.5351612
11	0x3e3daf7c	0.18523973
12	0x3f44843a	0.7676426
13	0xbe4e561f	-0.2015004
14	0x3e334e62	0.1751037
15	0x3e8ffa44	0.28120625
16	0x3e8f72bf	0.28017232
17	0xbd83b13f	-0.064302914
18	0x3e5f1cbe	0.21788308
19	0xbd81d5ad	-0.063395835
20	0x3f5d4474	0.86432576
21	0xbe7cf7b4	-0.24703866
22	0xbe80702a	-0.25085574
23	0xbe9aa11a	-0.30201036
24	0x3e88ed27	0.26743433

linear_layer3.weight f4 [15, 25]
0	0x3e3e7b7f	0.18601798
1	0x3ef169d7	0.47151062
2	0x3e8fc510	0.28080034
3	0xbf04d003	-0.518799
4	0x3ef616c8	0.48064256
5	0x3f071114	0.52760434
6	0x3e98859d	0.2978944
7	0xbe214e7c	-0.15752596
8	0xbef5de05	-0.4802095
9	0x3d592e06	0.053022407
10	0x3f1ad75c	0.6048486
11	0x3cfa87ee	0.030582394
12	0x3f18972d	0.59605676
13	0xbf1aea57	-0.60513824
14	0x3edd4e21	0.4322367
15	0x3ecb1163	0.39661703
16	0xbeb55646	-0.35417384
17	0xbd917ac4	-0.07103494
18	0x3e52330c	0.20527285
19	0xbce83e0b	-0.028349897
20	0x3b1c5f3a	0.002386047
21	0x3e8c72dc	0.2743138
22	0xbe5f04c7	-0.21779166
23	0xbf1f3936	-0.6219667
24	0x3d8a0b51	0.0674044
25	0x3e884d79	0.26621607
26	0x3eb095ba	0.34489232
27	0xbe04ca40	-0.12967777
28	0x3bef2711	0.0072983583
29	0x3e7e8a8f	0.24857543
30	0x3f22c675	0.6358407
31	0x3f506717	0.814073
32	0xbe85f8de	-0.26166433
33	0x3dc6a3f1	0.09699238
34	0xbd667671	-0.0562653
35	0xbde31026	-0.110870644
36	0x3be06165	0.006847548
37	0x3ebc1137	0.36731884
38	0x3d8a8b31	0.0676483
39	0x3e3936f8	0.18087375
40	0x3df014f1	0.11722744
41	0xbf0581f8	-0.5215144
42	0xbd174f65	-0.03694095
43	0xbe92e610	-0.2869115
44	0x3eee24ac	0.46512353
45	0x3e270c1c	0.16313213
46	0xbe95dfe4	-0.29272377
47	0xbe4addd4	-0.19811183
48	0x3d6fc1cc	0.05853443
49	0x3f0f5593	0.5598995
50	0x3f35b5eb	0.7098071
51	0xbc438c5e	-0.011935322
52	0x3f158422	0.58404744
53	0x3eaf63bc	0.3425578
54	0x3f1fedd1	0.62472254
55	0x3e5ef95f	0.21774815
56	0xbde74a4b	-0.11293467
57	0x3f239279	0.63895375
58	0xbd04af08	-0.032393485
59	0x3f31f469	0.69513565
60	0xbdeeb893	-0.116562985
61	0x3cfa3efa	0.030547608
62	0xbe2dc517	-0.16969715
63	0xbe1482cc	-0.1450302
64	0x3eaa40fd	0.33252707
65	0x3e9513ae	0.29116577
66	0xbe07e86c	-0.13272256
67	0x3ebe7318	0.37197185
68	0xbcd85b67	-0.026410772
69	0xbbcc99a0	-0.0062438995
70	0xbf2dfbd4	-0.67962384
71	0x3eee5cd2	0.4655519
72	0x3f55a96d	0.8346165
73	0xbe0aba95	-0.13547738
74	0xbd91c0d0	-0.07116854
75	0x3cb494f0	0.022043675
76	0x3eeed81f	0.46649262
77	0xbf01a046	-0.5063518
78	0x3f0d05ed	0.5508717
79	0x3e06993b	0.1314439
80	0x3edbb9fe	0.42915338
81	0xbea216e3	-0.31658086
82	0x3d934242	0.07190372
83	0x3dc55f0e	0.09637271
84	0x3e70baf3	0.23508815
85	0x3eb7715b	0.3582867
86	0xbe313bdb	-0.1730799
87	0xbecbf98e	-0.39838833
88	0xbee23f4c	-0.44188917
89	0x3d9f2fba	0.07772775
90	0xbe2e6f92	-0.17034748
91	0x3e7a5ca8	0.24449408
92	0x3e956201	0.29176334
93	0x3e06c410	0.1316073
94	0xbf469cc5	-0.7758296
95	0x3f07c895	0.5304044
96	0xbde819da	-0.11333056
97	0x3d65b841	0.05608392
98	0xbd3abb54	-0.045588806
99	0xbf7ece40	-0.9953346
100	0x3c582868	0.013193227
101	0xbebca42f	-0.36844012
102	0x3e64b8fd	0.22336192
103	0x3ec1653e	0.37772554
104	0xbde56a62	-0.112019315
105	0xbee68ba6	-0.45028418
106	0x3e822264	0.25416863
107	0x3f15f42d	0.5857571
108	0x3f29a8cc	0.6627319
109	0x3e6d321a	0.23163643
110	0xbf0bbb7a	-0.5458294
111	0x3f1b357f	0.60628504
112	0xbf1af6f2	-0.6053306
113	0x3f37c755	0.7178853
114	0xbe82c474	-0.25540507
115	0x3e9e8450	0.3096032
116	0x3eef33d8	0.4671924
117	0x3ce13740	0.027492166
118	0x3ce20cbb	0.027593961
119	0x3ed667a3	0.41875944
120	0xbd325714	-0.043540075
121	0x3da60bc5	0.081077136
122	0x3cd695a1	0.026194395
123	0x3f17602b	0.59131116
124	0x3ef7c8e9	0.4839547
125	0x3eb95f85	0.36205688
126	0x3d68609f	0.05673277
127	0x3e9466fa	0.28984815
128	0xbe7b0a4e	-0.2451565
129	0x3e8f01bd	0.27931014
130	0xbe4eb80b	-0.20187394
131	0xbdac5d61	-0.08416248
132	0xbeae2a61	-0.34016708
133	0xbf0d1c1a	-0.55121005
134	0x3bcace36	0.006189133
135	0x3d7ae6a7	0.061255123
136	0x3dfdd097	0.12393301
137	0x3f6bbb8a	0.92083037
138	0x3d3841c0	0.04498458
139	0x3e66d29b	0.22541277
140	0x3ef8e15f	0.48609444
141	0xbee4748b	-0.44620165
142	0x3f0c2c88	0.5475545
143	0xbcd43ab9	-0.025906907
144	0xbe9498a8	-0.29022717
145	0xbefa948c	-0.48941457
146	0x3ec85d81	0.39133838
147	0x3ee3c2be	0.44484514
148	0xbeb0747c	-0.3446387
149	0xbdfa22e7	-0.12213688
150	0xbe77920e	-0.24176809
151	0xbd446bc5	-0.04795434
152	0xbe1f3f86	-0.15551576
153	0xbe21cbf1	-0.15800454
154	0x3eb20cd5	0.34775415
155	0x3dd1973a	0.10233922
156	0x3ea954e2	0.33072573
157	0xbf00ef16	-0.50364816
158	0x3f07fc66	0.53119504
159	0xbe141190	-0.14459825
160	0x3ec71197	0.38880607
161	0xbe0ac0bd	-0.13550086
162	0x3e483ec1	0.19555189
163	0xbe2a003d	-0.16601653
164	0xbd90fe21	-0.07079721
165	0xbd690043	-0.056885015
166	0x3e4c42ba	0.19947329
167	0x3ed19364	0.40932763
168	0x3f232c23	0.6373922
169	0x3e264471	0.16237046
170	0x3ecfbfce	0.40576023
171	0xbc021742	-0.007940115
172	0xbe751d19	-0.23936881
173	0x3eb890fa	0.36048108
174	0xbdc36ddd	-0.09542439
175	0xbe961981	-0.29316333
176	0xbf026566	-0.5093597
177	0x3df4de21	0.1195643
178	0x3f3f95cb	0.7483794
179	0x3d8e332e	0.069433555
180	0xbfcd942c	-1.6060843
181	0x3ddf8f96	0.10916059
182	0x3edb82aa	0.42873126
183	0x3f28af31	0.6589232
184	0x3e5fa2d9	0.21839465
185	0xbccde6cc	-0.025134467
186	0xbdde9296	-0.10867803
187	0xbe03b9ba	-0.12863818
188	0x3eb8a740	0.36065102
189	0xbd77b3d3	-0.060474228
190	0x3d535ce4	0.05160226
191	0x3c9b498d	0.01895597
192	0x3ec5912b	0.38587317
193	0x3f455826	0.7708763
194	0xbf16cf84	-0.58910394
195	0xbf19428d	-0.59867173
196	0xbea987b9	-0.3311136
197	0x3f551215	0.83230716
198	0x3ef051fd	0.46937552
199	0xbebe2562	-0.37137896
200	0xbd5717d9	-0.052512977
201	0xbcc17674	-0.023616053
202	0x3dae1e6e	0.08501898
203	0xbe672344	-0.22572047
204	0xbe420f3c	-0.18951124
205	0x3e7928b6	0.24331936
206	0x3e36e7cb	0.1786186
207	0x3d97dbc6	0.07414965
208	0x3f08ea57	0.53482574
209	0xbe88c512	-0.26712853
210	0x3e551709	0.20809568
211	0x3e1afe54	0.15136081
212	0xbebe3424	-0.37149155
213	0x3e00d5aa	0.12581506
214	0xbd4ebf01	-0.050475124
215	0xbf078c1d	-0.5294817
216	0x3ec41914	0.38300383
217	0xbec926f6	-0.39287537
218	0x3eedc996	0.4644286
219	0x3f550ce8	0.8322282
220	0x3f4b6b0b	0.7946021
221	0xbe8bfb06	-0.27339953
222	0xbea83cfd	-0.3285903
223	0x3ea58e35	0.32335058
224	0x3edda4d9	0.4328983
225	0xbef0ea62	-0.4705382
226	0x3f3344ac	0.7002666
227	0x3de016b9	0.10941834
228	0xbd97c8ba	-0.074113324
229	0xbee890b1	-0.4542289
230	0x3c97015f	0.018433271
231	0x3f2fb07a	0.68628657
232	0x3e062beb	0.13102691
233	0x3eeaa829	0.4583142
234	0x3d9c6e85	0.076382674
235	0xbd4e94ce	-0.05043488
236	0xbd8aad4c	-0.06771335
237	0xbe0d061d	-0.13771863
238	0x3ded11f4	0.1157569
239	0x3e65b672	0.22432879
240	0xbe336b05	-0.17521293
241	0x3eae4ba7	0.34042093
242	0xbefb09c2	-0.49030882
243	0x3eb69eb5	0.3566796
244	0x3f46e415	0.77691776
245	0x3e9f6e4e	0.31138843
246	0xbe36dc72	-0.1785753
247	0xbc9c076a	-0.019046504
248	0x3e83351d	0.2562646
249	0x3e48a120	0.19592714
250	0xbe3cf337	-0.18452154
251	0xbcbc3344	-0.022973664
252	0xbec1f075	-0.37878767
253	0x3e8b85bf	0.27250478
254	0xbe72e58c	-0.23720378
255	0x3ea0d2f6	0.3141095

linear_layer3.bias f4 [15]
0	0x3f09b6cf	0.5379457
1	0x3f110cbb	0.5666005
2	0xbe93ade0	-0.28843594
3	0x3eb46a53	0.3523737
4	0x3e9ffda7	0.3124821
5	0x3f115e20	0.5678425
6	0x3f55a480	0.8345413
7	0xbe9366fb	-0.28789505
8	0x3e721bf7	0.2364348
9	0xbecdaffe	-0.40173334
10	0x3f206f11	0.62669474
11	0x3d68e8b7	0.05686256
12	0x3ed086e0	0.407279
13	0x3e5d1b7b	0.21592514
14	0x3edaed48	0.42759156

linear_layer4.weight f4 [10, 15]
0	0xbd95fa3a	-0.073231176
1	0x3ee1ff08	0.44139886
2	0xbf03ef24	-0.51536775
3	0xbff07aa5	-1.8787428
4	0x3ed79d5b	0.4211224
5	0xbf841fc5	-1.0322195
6	0x3e090f0d	0.13384648
7	0x3e5e9fb8	0.21740615
8	0x3f34e2b3	0.70658416
9	0x3f32f72d	0.6990841
10	0xbf06f13d	-0.5271185
11	0x3f421cef	0.758254
12	0xbf22eb12	-0.6363994
13	0x3e22a5ef	0.15883611
14	0x3d9a54cf	0.07535707
15	0xbfac2506	-1.3448799
16	0xbf0e8cf8	-0.5568385
17	0x3e91ad95	0.28452745
18	0xbe133b7c	-0.1437816
19	0x3f08d682	0.5345231
20	0xbcb49caf	-0.022047369
21	0xbe140bf5	-0.14457686
22	0x3f24633b	0.64213914
23	0xbf83b713	-1.0290245
24	0xbe2724c7	-0.16322623
25	0xbee9d2a5	-0.45668522
26	0xbf2e080b	-0.6798102
27	0x3f07b528	0.530108
28	0x3db55e92	0.088559285
29	0xbfd68a0e	-1.6760881
30	0x3e0af0f2	0.13568476
31	0xbf369915	-0.71327335
32	0x3eaecb15	0.34139314
33	0xbcb95913	-0.022625482
34	0x3bd69c9f	0.0065494324
35	0x3e9bb60d	0.3041233
36	0x3ddb7a17	0.10716646
37	0x3ea3bf44	0.31981862
38	0xbf4b9302	-0.7952119
39	0xbf0fbf34	-0.5615113
40	0xbf878a0e	-1.0589006
41	0x3dc514a6	0.09623079
42	0x3cb88477	0.022524102
43	0xbf7c05c8	-0.9844632
44	0xbec9b21c	-0.393937
45	0x3f20852b	0.627032
46	0x3ec91d36	0.392801
47	0x3db01807	0.08598333
48	0xbf339323	-0.7014639
49	0xbf1e5e6f	-0.61862844
50	0x3ee03b1b	0.43795094
51	0xbee64694	-0.44975722
52	0xbe48379b	-0.19552462
53	0xbf27dfe9	-0.65576035
54	0x3dbdc763	0.092665456
55	0xbfd83dde	-1.689388
56	0xbf0507d5	-0.51965076
57	0xbe70369e	-0.23458335
58	0x3b8164ac	0.0039487686
59	0x3f1e695b	0.6187951
60	0x3e0a87b8	0.13528335
61	0x3e9bc8d5	0.3042666
62	0x3de58af2	0.11208142
63	0xbf24ec67	-0.6442322
64	0x3e42ea5e	0.19034716
65	0x3d5b4a1e	0.05353748
66	0xbfd59a12	-1.6687644
67	0xbf121d48	-0.5707593
68	0xbdbd4c57	-0.09243076
69	0x3d07230f	0.03299242
70	0xbd8a0a79	-0.06740279
71	0xbf341ce0	-0.7035656
72	0xbeba4dda	-0.3638752
73	0x3f231163	0.63698405
74	0xbcf821ed	-0.030289615
75	0x3aaf1c59	0.0013359889
76	0x3ebfd350	0.37465906
77	0xbf2f6676	-0.6851572
78	0x3ee96aa4	0.45589173
79	0xbfb2e4f9	-1.3976127
80	0xbd8f319d	-0.06991885
81	0x3e432238	0.19056022
82	0xbffc0a5c	-1.9690661
83	0xbc1839a5	-0.009291087
84	0x3cfa35ce	0.030543234
85	0x3e1de83f	0.15420626
86	0x3ec49302	0.38393408
87	0x3efd740d	0.49502602
88	0xbeb0f3f0	-0.3456111
89	0x3f1042fd	0.56352216
90	0x3e8086c1	0.2510281
91	0xbd8ec2d9	-0.06970758
92	0xbec8ff49	-0.39257267
93	0x3eaa9b20	0.33321476
94	0xbf95f410	-1.1715107
95	0xbe395496	-0.18098673
96	0xbd277322	-0.040881284
97	0xbe80d9ba	-0.25166112
98	0x3d9f8016	0.07788102
99	0x3edf1444	0.4357015
100	0x3e39ea32	0.18155745
101	0x3cc7ae69	0.024375157
102	0xbf378753	-0.71690863
103	0x3ef9b534	0.4877106
104	0x3f1e7f33	0.6191284
105	0x3ede33d5	0.4339892
106	0x3e3483c5	0.17628391
107	0xbfbb11c6	-1.4614799
108	0xbde5be9a	-0.11217995
109	0xbefc701a	-0.49304277
110	0x3e6643b0	0.22486758
111	0x3edaa483	0.42703637
112	0xbeb046f8	-0.34429145
113	0x3e5581f9	0.20850362
114	0xbf272490	-0.65290165
115	0x3f26b3a2	0.6511785
116	0xbdb0aaf7	-0.08626359
117	0xbf4df93f	-0.80458444
118	0xbe6ff6c4	-0.23433977
119	0x3d90c181	0.07068158
120	0xbfa64365	-1.2989317
121	0xbf6b5faf	-0.91942877
122	0xbfa17920	-1.261509
123	0xbf909659	-1.1295882
124	0xbef0b669	-0.47014168
125	0xbf8ef536	-1.1168582
126	0xbf612a66	-0.8795532
127	0xbf3ae648	-0.7300763
128	0xbf3ea7d1	-0.7447482
129	0xbf1f129b	-0.62137765
130	0xbf504d2c	-0.81367755
131	0xbfc4d9a7	-1.5378922
132	0xbef69d0f	-0.481667
133	0xbf3a2096	-0.7270597
134	0xbf67aadf	-0.90495104
135	0xbf86200f	-1.0478534
136	0xbf6c58fe	-0.9232329
137	0xbfc3b5c5	-1.5289847
138	0xbf9bf9cd	-1.2185608
139	0xbe75dc9d	-0.24009939
140	0xbfa542d0	-1.2911015
141	0xbf9ac18e	-1.2090318
142	0xbf1f9bb2	-0.6234695
143	0xbf2db784	-0.6785815
144	0xbe95b4c4	-0.29239476
145	0xbf529c01	-0.82269293
146	0xbf88d35d	-1.0689503
147	0xbee28b8b	-0.44247088
148	0xbf4c4187	-0.79787487
149	0xbf8c1662	-1.0944331

linear_layer4.bias f4 [10]
0	0xbf93d57e	-1.1549528
1	0x3beea7ea	0.0072832005
2	0xbe013d17	-0.1262096
3	0x3d6faeda	0.05851636
4	0x3eb4c4dd	0.35306445
5	0x3f02794c	0.50966334
6	0xba6935ca	-0.000889626
7	0x3ec072b0	0.375875
8	0xbf8bac65	-1.0911986
9	0xbf6d3568	-0.92659616

criterion.weight f4 [10]
0	0x3f000000	0.5
1	0x3f000000	0.5
2	0x3f000000	0.5
3	0x3f800000	1.0
4	0x3f800000	1.0
5	0x3f800000	1.0
6	0x3f800000	1.0
7	0x3f800000	1.0
8	0x3f800000	1.0
9	0x3f800000	1.0
